…
ivation=\"softmax\")) # output layer; softmax converts vector into prob distr.\n","\n","opt = keras.optimizers.Adam(learning_rate=0.0001)\n","model.compile(optimizer=opt,loss=\"sparse_categorical_crossentropy\",metrics=['accuracy'])\n","model.summary()"],"execution_count":7,"outputs":[{"output_type":"stream","name":"stdout","text":["Model: \"sequential\"\n","_________________________________________________________________\n"," Layer (type)                Output Shape              Param #   \n","=================================================================\n"," conv2d (Conv2D)             (None, 200, 200, 32)      896       \n","                                                                 \n"," conv2d_1 (Conv2D)           (None, 200, 200, 32)      9248      \n","                                                                 \n"," max_pooling2d (MaxPooling2D  (None, 66, 66, 32)       0         \n"," )                                                               \n","                                                                 \n"," conv2d_2 (Conv2D)           (None, 66, 66, 64)        18496     \n","                                                                 \n"," conv2d_3 (Conv2D)           (None, 66, 66, 64)        36928     \n","                                                                 \n"," max_pooling2d_1 (MaxPooling  (None, 22, 22, 64)       0         \n"," 2D)                                                             \n","                                                                 \n"," conv2d_4 (Conv2D)           (None, 22, 22, 128)       73856     \n","                                                                 \n"," conv2d_5 (Conv2D)           (None, 22, 22, 128)       147584    \n","                                                                 \n"," max_pooling2d_2 (MaxPooling  (None, 7, 7, 128)        0         \n"," 2D)                                                             \n","                                                                 \n"," conv2d_6 (Conv2D)           (None, 7, 7, 256)         295168    \n","                                                                 \n"," conv2d_7 (Conv2D)           (None, 7, 7, 256)         590080    \n","                                                                 \n"," flatten (Flatten)           (None, 12544)             0         \n","                                                                 \n"," dense (Dense)               (None, 512)               6423040   \n","                                                                 \n"," dropout (Dropout)           (None, 512)               0         \n","                                                                 \n"," dense_1 (Dense)             (None, 2)                 1026      \n","                                                                 \n","=================================================================\n","Total params: 7,596,322\n","Trainable params: 7,596,322\n","Non-trainable params: 0\n","_________________________________________________________________\n"]}]},{"cell_type":"code","metadata":{"colab":{"base_uri":"https://localhost:8080/"},"id":"Xfq
…
